…
    "train_generator = train_generator.flow(np.array(X_train), y_train, shuffle=False)\n",
    "test_generator = test_generator.flow(np.array(X_test), y_test, shuffle=False)"
   ]
  },
  {
   "cell_type": "code",
   "execution_count": 27,
   "id": "1f9810d3",
   "metadata": {},
   "outputs": [
    {
     "name": "stdout",
     "output_type": "stream",
     "text": [
      "Model: \"sequential\"\n",
      "_________________________________________________________________\n",
      " Layer (type)                Output Shape              Param #   \n",
      "=================================================================\n",
      " conv2d (Conv2D)             (None, 143, 143, 256)     7168      \n",
      "                                                                 \n",
      " max_pooling2d (MaxPooling2D  (None, 71, 71, 256)      0         \n",
      " )                                                               \n",
      "                                                                 \n",
      " conv2d_1 (Conv2D)           (None, 69, 69, 128)       295040    \n",
      "                                                                 \n",
      " max_pooling2d_1 (MaxPooling  (None, 34, 34, 128)      0         \n",
      " 2D)                                                             \n",
      "                                                                 \n",
      " conv2d_2 (Conv2D)           (None, 32, 32, 64)        73792     \n",
      "                                                                 \n",
      " max_pooling2d_2 (MaxPooling  (None, 16, 16, 64)       0         \n",
      " 2D)                                                             \n",
      "                                                                 \n",
      " conv2d_3 (Conv2D)           (None, 14, 14, 32)        18464     \n",
      "                                                                 \n",
      " max_pooling2d_3 (MaxPooling  (None, 7, 7, 32)         0         \n",
      " 2D)                                                             \n",
      "                                                                 \n",
      " flatten (Flatten)           (None, 1568)              0         \n",
      "                                                                 \n",
      " dropout (Dropout)           (None, 1568)              0         \n",
      "                                                                 \n",
      " dense (Dense)               (None, 64)                100416    \n",
      "                                                                 \n",
      " dense_1 (Dense)             (None, 4)                 260       \n",
      "                                                                 \n",
      "=================================================================\n",
      "Total params: 495,140\n",
      "Trainable params: 495,140\n",
      "Non-trainable params: 0\n",
      "_________________________________________________________________\n"
     ]
    },
    {
     "name": "stderr",
     "output_type": "stream",
…
